…
        "model1.add(Dense(100, activation='relu'))\n",
        "model1.add(Dense(5, activation='softmax'))\n",
        "\n",
        "model1.summary()"
      ],
      "execution_count": 194,
      "outputs": [
        {
          "output_type": "stream",
          "text": [
            "Model: \"sequential_7\"\n",
            "_________________________________________________________________\n",
            "Layer (type)                 Output Shape              Param #   \n",
            "=================================================================\n",
            "conv2d_28 (Conv2D)           (None, 188, 188, 16)      1216      \n",
            "_________________________________________________________________\n",
            "max_pooling2d_28 (MaxPooling (None, 94, 94, 16)        0         \n",
            "_________________________________________________________________\n",
            "conv2d_29 (Conv2D)           (None, 92, 92, 16)        2320      \n",
            "_________________________________________________________________\n",
            "max_pooling2d_29 (MaxPooling (None, 46, 46, 16)        0         \n",
            "_________________________________________________________________\n",
            "conv2d_30 (Conv2D)           (None, 44, 44, 32)        4640      \n",
            "_________________________________________________________________\n",
            "max_pooling2d_30 (MaxPooling (None, 22, 22, 32)        0         \n",
            "_________________________________________________________________\n",
            "conv2d_31 (Conv2D)           (None, 20, 20, 32)        9248      \n",
            "_________________________________________________________________\n",
            "max_pooling2d_31 (MaxPooling (None, 10, 10, 32)        0         \n",
            "_________________________________________________________________\n",
            "flatten_7 (Flatten)          (None, 3200)              0         \n",
            "_________________________________________________________________\n",
            "dense_14 (Dense)             (None, 100)               320100    \n",
            "_________________________________________________________________\n",
            "dense_15 (Dense)             (None, 5)                 505       \n",
            "=================================================================\n",
            "Total params: 338,029\n",
            "Trainable params: 338,029\n",
            "Non-trainable params: 0\n",
            "_________________________________________________________________\n"
          ],
          "name": "stdout"
        }
      ]
    },
    {
      "cell_type": "code",
      "metadata": {
…
